lenet_mnist_state.pth (torch, 254123 bytes, 18 tensors)

layer1.0.weight f4 [6, 1, 5, 5]
0.33450818 0.02291699 0.09117829 -0.3351006 -0.058355954 0.17973661 -0.004120495 -0.15332574
-0.24244598 -0.06799238 0.24254662 0.05870169 -0.28521705 -0.19393045 -0.04311876 0.14574578
0.036768164 -0.2425877 -0.20149009 -0.13963395 0.11422895 -0.21811208 -0.021153158 -0.039071728
0.013561472 -0.09254163 -0.12832205 0.105488166 0.11049313 -0.04835241 0.29500794 0.26594695
0.26376235 0.13885282 0.13878228 -0.13027246 -0.025397805 -0.04277627 0.25887224 0.19481423
-0.05481558 -0.31153607 -0.16440965 -0.17171733 -0.0044980254 -0.19928087 0.034366112 -0.30849758
-0.15198387 -0.051356684 -0.25744054 -0.1822501 -0.29547673 -0.07399969 -0.024784327 -0.09909364
-0.2684108 -0.058758598 0.08593962 0.09306562 0.008544261 -0.23639582 -0.080621 -0.036012284
0.060472168 -0.21492301 0.08639261 0.19932863 0.17695895 0.3313264 -0.18429732 -0.108898
0.08329572 0.38878864 0.10803492 -0.036106084 -0.22217345 0.13462935 -0.10622119 0.088337705
-0.37233192 0.028644264 0.09926376 0.15130761 -0.07967909 0.01391118 0.31163728 0.32228822
-0.049201977 -0.1934844 -0.035954166 0.36406887 0.029681636 -0.28851095 -0.23823793 0.01969872
-0.17548324 -0.06541652 -0.14271899 0.07628895 -0.13481854 -0.20196514 0.020549154 -0.03538182
0.09919168 -0.15363687 -0.13347878 -0.21711093 0.25895834 0.3133472 -0.06653428 -0.27087626
-0.15634257 0.0931686 0.27524263 0.20182988 -0.18597113 -0.1962088 0.023684751 0.19389744
-0.19344014 -0.19501205 -0.28840202 -0.07163451 -0.028393392 -0.116893135 -0.08885113 0.070637375
-0.11188188 -0.027652249 0.22867961 -0.06394988 0.024407124 -0.29156303 -0.058587246 -0.10122914
0.24698693 0.15350449 -0.34040362 -0.14392093 -0.056654267 0.28748545 0.030449426 -0.104197636
-0.2038828 -0.059528872 0.08508405 0.34064254 0.2758608 -0.03798179
00000000: a844 ab3e 69bc bb3c afbb ba3d 4e92 abbe
00000010: a706 6fbd e00c 383e 3805 87bb 6c01 1dbe
00000020: c243 78be 973f 8bbd 245e 783e 2f71 703d
00000030: f807 92be b495 46be 4c9d 30bd 623e 153e
00000040: 379a 163d e968 78be 6b53 4ebe 34fc 0ebe
00000050: def0 e93d c658 5fbe 6349 adbc ad09 20bd
00000060: f030 5e3c 7786 bdbd db66 03be 2e0a d83d
00000070: 394a e23d 2d0d 46bd 480b 973e 332a 883e
00000080: dc0b 873e 6f2f 0e3e f11c 0e3e 2566 05be
00000090: 0f0f d0bc 2c36 2fbd e78a 843e 627d 473e
000000a0: 4d86 60bd a881 9fbe 015b 28be abd6 2fbe
000000b0: 2c64 93bb 4910 4cbe 7bc3 0c3d 65f3 9dbe
000000c0: a9a1 1bbe 635b 52bd 3fcf 83be c59f 3abe
000000d0: ba48 97be 268d 97bd 8008 cbbc 9bf1 cabd
000000e0: 246d 89be dbac 70bd 1d01 b03d 3099 be3d
000000f0: 3afd 0b3c bf11 72be 9f1c a5bd 9e81 13bd
00000100: aab1 773d c714 5cbe 9cee b03d ce1c 4c3e
00000110: ba34 353e 9da3 a93e 70b8 3cbe ea05 dfbd
00000120: f296 aa3d 4e0f c73e 6a41 dd3d f9e3 13bd
00000130: 7081 63be 47dc 093e 7f8a d9bd 66ea b43d
00000140: 4aa2 bebe 60a7 ea3c cc4a cb3d 62f0 1a3e
00000150: ca2e a3bd b8eb 633c ec8e 9f3e f602 a53e
00000160: 0388 49bd c620 46be ad44 13bd 3c67 ba3e
00000170: e726 f33c b5b7 93be a5f4 73be 365f a13c
00000180: e1b1 33be 19f9 85bd ed24 12be 623d 9c3d
00000190: df0d 0abe f3cf 4ebe b356 a83c 87ec 10bd
000001a0: 0225 cb3d fc52 1dbe a9ae 08be 5452 5ebe
000001b0: 3096 843e 0b6f a03e 2043 88bd 4bb0 8abe
000001c0: 4418 20be 2ecf be3d 9aec 8c3e 7eac 4e3e
000001d0: 376f 3ebe f6ea 48be 8606 c23c 0d8d 463e
000001e0: 2c15 46be 3db1 47be 6ea9 93be 1db5 92bd
000001f0: 4299 e8bc ab65 efbd 95f7 b5bd 54aa 903d
00000200: 5422 e5bd f886 e2bc fd2a 6a3e 28f8 82bd
00000210: 73f1 c73c c047 95be 2ef9 6fbd 3951 cfbd
00000220: 24ea 7c3e 4830 1d3e 6249 aebe 0260 13be
00000230: 4e0e 68bd 4b31 933e 1371 f93c 9265 d5bd
00000240: a7c6 50be 8cd4 73bd 8c40 ae3d b368 ae3e
00000250: a03d 8d3e cb92 1bbd

layer1.0.bias f4 [6]
-0.08542092 -0.13612783 0.018904028 -0.2002259 -0.06451695 0.2586885
00000000: 2af1 aebd 1865 0bbe 9fdc 9a3c 0508 4dbe
00000010: 7621 84bd d272 843e

layer1.1.weight f4 [6]
1.0069039 1.0341672 0.88482094 0.8877324 1.2238325 1.0072868
00000000: 3ae2 803f 975f 843f a083 623f 6e42 633f
00000010: 8ba6 9c3f c6ee 803f

layer1.1.bias f4 [6]
-0.06532837 -0.14357927 -0.21707208 -0.31616375 -0.21438253 -0.14902925
00000000: e1ca 85bd 7206 13be 2548 5ebe 37e0 a1be
00000010: 1887 5bbe 209b 18be

layer1.1.running_mean f4 [6]
-0.41751248 -0.16611648 -0.12512635 -0.31510004 -0.40131435 0.24295597
00000000: 32c4 d5be 701a 2abe 1f21 00be cb54 a1be
00000010: 1379 cdbe 73c9 783e

layer1.1.running_var f4 [6]
13.897338 5.862334 14.656181 2.9393945 12.234716 3.8547602
00000000: 7f5b 5e41 3d98 bb40 b87f 6a41 0a1f 3c40
00000010: 66c1 4341 64b4 7640

layer2.0.weight f4 [16, 6, 5, 5]
0.049422342 0.064547814 -0.11963494 -0.11913722 -0.08818327 0.019767866 0.035436273 -0.16810949
-0.0059001935 -0.028977389 0.0073982715 -0.087550946 -0.17705216 0.12403332 0.04180154 -0.01301088
-0.4572598 -0.16805695 0.08642392 -0.034445576 -0.08453121 -0.09790241 0.013538129 -0.041066524
0.017015092 -0.06905635 -0.10142423 -0.09045606 -0.10281052 -0.03059597 -0.24454507 -0.2407149
0.01321297 -0.21449831 -0.16276668 0.005870049 -0.16040833 -0.16618788 -0.0143650975 -0.18536016
0.12004475 0.14185318 0.104362465 0.0809875 -0.053565025 0.35084754 0.2694491 0.17376743
0.20182942 0.19647817 0.09423104 0.09591192 0.0116803115 0.13206938 0.009659445 0.061068345
-0.22378518 -0.049977686 0.10762333 0.020472271 -0.17154813 -0.34447423 -0.1478505 0.25797048
0.17790192 -0.19272485 -0.24404988 -0.019978322 -0.05783651 -0.010453772 0.006384531 -0.062834516
0.043755736 -0.10138818 -0.17630966 -0.06920992 0.06709835 0.05835417 0.0403273 -0.027274845
0.03340056 0.18320191 0.0072676186 0.119693 0.13356349 0.118165776 -0.17575805 0.2237166
0.22960839 0.05289692 -0.2037975 -0.10075468 0.18313877 0.0630887 0.089548886 -0.11655227
-0.09279105 -0.17710188 -0.0870535 -0.1097268 0.08818242 -0.018317904 -0.26034427 0.021976983
-0.29362142 0.04191077 -0.091600835 0.104708776 0.00083169603 -0.1260975 0.17615947 -0.23753232
0.031045116 0.028279891 -0.034257863 0.064437635 -0.35444438 -0.009156612 0.14633049 0.11162794
0.054332584 -0.06838282 -0.16040264 -0.14940661 -0.25905117 -0.025279528 0.13389497 0.10027836
0.12964512 0.16181701 -0.14481664 0.07067148 -0.16052026 0.13740271 0.01656762 0.2821151
0.19916482 -0.0757585 0.045257006 -0.062958166 0.1906772 -0.117324196 -0.11157345 -0.13076584
-0.035605486 0.072702326 -0.09495655 -0.12549278 -0.24529509 -0.3148959 -0.21537216 -0.2726403
0.048351254 -0.20346268 0.11514033 -0.16184032 -0.103371315 -0.042512055 -0.09273554 0.05486629
-0.087672725 0.017309085 -0.0072854618 0.101168066 0.082510486 -0.09972891 0.1676688 0.27217627
0.10603342 0.101157986 -0.1955895 0.064323165 0.08313011 0.17348929 0.33889604 -0.0012509786
0.09881225 0.10457045 -0.10940833 -0.10327133 0.1961408 0.01724563 -0.14924787 -0.15251006
-0.03868933 0.18695234 -0.15427685 -0.12512952 -0.019887205 0.20653182 0.18011542 0.020955281
-0.10589967 -0.23004179 0.064448915 0.11238045 0.0027406712 0.022711536 0.0990402 0.121376954
0.22033383 -0.06604596 0.038943052 -0.044858016 0.1673146 -0.05167324 0.15548098 0.25258854
0.015294965 0.10212184 0.20635918 0.12755968 0.15191954 0.061497137 -0.1529705 0.12101848
0.09733832 -0.050423868 -0.25958526 -0.3891149 0.13683859 0.02166164 -0.04438417 -0.38724273
-0.17661668 -0.16152132 -0.009905296 -0.11792298 0.0719034 0.0914396 0.050223667 0.0010063961
0.01577777 0.035208464 0.10669868 0.10932259 0.1850203 0.085918896 -0.05874246 -0.028529918
0.09602831 0.093115695 -0.21098414 -0.33800673 -0.025007976 0.09702774 0.061003696 -0.08084442
-0.05706219 0.2692358 -0.098780684 -0.019986913 0.17453134 0.0028263999 -0.2372035 -0.110769466
00000000: 156f 4a3d a531 843d 2a03 f5bd 37fe f3bd
00000010: 6e99 b4bd 38f0 a13c a025 113d e524 2cbe
00000020: 6956 c1bb fd61 edbc 336d f23b e94d b3bd
00000030: 294d 35be 2e05 fe3d 1738 2b3d 962b 55bc
00000040: f51d eabe 1f17 2cbe 06ff b03d ce16 0dbd
00000050: b31e adbd 0f81 c8bd 07cf 5d3c 5f35 28bd
00000060: 3c63 8b3c 6a6d 8dbd 82b7 cfbd 0741 b9bd
00000070: 528e d2bd 66a4 fabc 066a 7abe f77d 76be
00000080: 377b 583c 72a5 5bbe 4fac 26be 8a59 c03b
00000090: 1542 24be 282d 2abe 965b 6bbc 0ecf 3dbe
000000a0: 06da f53d f641 113e fdbb d53d c6dc a53d
000000b0: 0067 5bbd 4aa2 b33e 3cf5 893e 17f0 313e
000000c0: 5fac 4e3e 9331 493e 34fc c03d 786d c43d
000000d0: c75e 3f3c 323d 073e a642 1e3c cd22 7a3d
000000e0: f127 65be 67b5 4cbd 9f69 dc3d 77b5 a73c
000000f0: 50aa 2fbe ed5e b0be 1f66 17be b514 843e
00000100: ec2b 363e aa59 45be 36e8 79be 94a9 a3bc
00000110: fae5 6cbd 4c46 2bbc 5435 d13b 62af 80bd
00000120: 3739 333d 9ba4 cfbd 858a 34be eebd 8dbd
00000130: dc6a 893d c804 6f3d 3d2e 253d 7f6f dfbc
00000140: 07cf 083d 4899 3b3e 3425 ee3b 9b21 f53d
00000150: dec4 083e e600 f23d ebf9 33be f715 653e
00000160: 761e 6b3e 71aa 583d 4bb0 50be 7858 cebd
00000170: bb88 3b3e a634 813d 6865 b73d f5b2 eebd
00000180: 3c09 bebd 325a 35be 1b49 b2bd 72b8 e0bd
00000190: fc98 b43d 6e0f 96bc d84b 85be 1309 b43c
000001a0: 8c55 96be a1aa 2b3d 3899 bbbd 8e71 d63d
000001b0: 2d06 5a3a b41f 01be 2663 343e ac3b 73be
000001c0: 5452 fe3c 3bab e73c f951 0cbd e1f7 833d
000001d0: bc79 b5be 9d05 16bc a9d7 153e 309d e43d
000001e0: d88b 5e3d 4b0c 8cbd 9740 24be 0cfe 18be
000001f0: 5ba2 84be 0317 cfbc c31b 093e be5e cd3d
00000200: b1c1 043e 5cb3 253e d04a 14be 35bc 903d
00000210: 6c5f 24be 4cb3 0c3e d1b8 873c 6471 903e
00000220: ddf1 4b3e 4627 9bbd 695f 393d 36f0 80bd
00000230: e240 433e ab47 f0bd 9f80 e4bd 7be7 05be
00000240: 0fd7 11bd f5e4 943d 9478 c2bd 2e81 00be
00000250: a32e 7bbe 093a a1be 858a 5cbe 8297 8bbe
00000260: f70b 463d 8558 50be b1ce eb3d 78b9 25be
00000270: 57b4 d3bd 1f21 2ebd 21ec bdbd 7abb 603d
00000280: c28d b3bd c8cb 8d3c e2ba eebb 3431 cf3d
00000290: 42fb a83d ac3e ccbd 5fb1 2b3e b05a 8b3e
000002a0: 0d28 d93d eb2b cf3d 9d48 48be ddbb 833d
000002b0: 1e40 aa3d 2da7 313e c883 ad3e e0f7 a3ba
000002c0: 145e ca3d 0829 d63d 7911 e0bd eb7f d3bd
000002d0: 22d9 483e b546 8d3c 6fd4 18be 992b 1cbe
000002e0: b478 1ebd 6f70 3f3e c0fa 1dbe f421 00be
000002f0: 7eea a2bc 147d 533e 2d70 383e 69aa ab3c
00000300: ede1 d8bd 1390 6bbe cbfd 833d b927 e63d
00000310: d59c 333b 8b0d ba3c 97d5 ca3d 7b94 f83d
00000320: 319f 613e 1b43 87bd c082 1f3d 0abd 37bd
00000330: 8554 2b3e 52a7 53bd 6836 1f3e 4953 813e
00000340: bc97 7a3c 4125 d13d d24f 533e 019f 023e
00000350: cc90 1b3e 6ce4 7b3d 4ca4 1cbe 89d8 f73d
00000360: 5059 c73d 4289 4ebd 5ce8 84be 113a c7be
00000370: 6a1f 0c3e c073 b13c 2dcc 35bd ae44 c6be
00000380: 01db 34be d865 25be d349 22bc 9a81 f1bd
00000390: 1742 933d af44 bb3d 55b7 4d3d 0de9 833a
000003a0: 6240 813c c036 103d d684 da3d 86e4 df3d
000003b0: f675 3d3e 3ff6 af3d ef9b 70bd 93b7 e9bc
000003c0: 7eaa c43d 71b3 be3d 3a0c 58be 380f adbe
000003d0: 87dd ccbc 7bb6 c63d 03df 793d c291 a5bd
000003e0: 0bba 69bd 46d9 893e 874d cabd 98bb a3bc
000003f0: 58b8 323e 1f3b 393b 79e5 72be 1adb e2bd

layer2.0.bias f4 [16]
-0.023274437 0.07605961 -0.07085969 -0.08196201 -0.09796474 0.034517072 0.21641831 0.07943937
0.042796694 -0.10301162 0.020988032 -0.22948524 0.059732873 -0.035095625 0.06991205 0.022165848
00000000: 08aa bebc 24c5 9b3d e31e 91bd b3db a7bd
00000010: bda1 c8bd c661 0d3d c39c 5d3e 1cb1 a23d
00000020: 964b 2f3d c2f7 d2bd 18ef ab3c 2efe 6abe
00000030: 75aa 743d 6ec0 0fbd 0d2e 8f3d 2795 b53c

layer2.1.weight f4 [16]
1.1241665 1.0797979 0.9667686 1.049356 0.9257771 0.9804466 1.083255 0.9776939
0.9460861 1.1499184 1.0420371 1.1236252 0.86779016 1.0902402 1.0085028 0.98917884
00000000: b0e4 8f3f d136 8a3f 267e 773f 4c51 863f
00000010: baff 6c3f 8cfe 7a3f 1aa8 8a3f 264a 7a3f
00000020: b332 723f 8730 933f 7961 853f f3d2 8f3f
00000030: 7f27 5e3f fe8c 8b3f 9f16 813f d33a 7d3f

layer2.1.bias f4 [16]
-0.48176253 -0.4047058 -0.51633084 -0.347237 -0.37199044 -0.40013763 -0.5629056 -0.40047348
-0.5343196 -0.43998682 -0.47171646 -0.6494154 -0.60355186 -0.6728555 -0.55179054 -0.5356407
00000000: 94a9 f6be 9935 cfbe 422e 04bf 0cc9 b1be
00000010: 8875 bebe d7de ccbe 951a 10bf dc0a cdbe
00000020: 2bc9 08bf f445 e1be d284 f1be 1640 26bf
00000030: 6082 1abf 4240 2cbf 2542 0dbf c01f 09bf

layer2.1.running_mean f4 [16]
-1.070408 0.21017385 -0.03481039 -1.1628563 -0.5663217 1.2410172 -0.45228314 -0.4759167
1.3719809 -1.1720122 -0.78160256 -1.1478438 1.7248933 -0.806038 -0.95666254 0.84965
00000000: 2103 89bf d037 573e 5795 0ebd 7ad8 94bf
00000010: 75fa 10bf a7d9 9e3f a891 e7be 5bab f3be
00000020: 129d af3f 7f04 96bf 1b17 48bf 8cec 92bf
00000030: 4ec9 dc3f 8258 4ebf d6e7 74bf aa82 593f

layer2.1.running_var f4 [16]
3.1332006 3.6836843 3.1137977 2.993573 3.7977242 4.2722416 3.2330482 2.1528988
4.2266426 5.6781845 2.2451322 3.4114382 3.0467174 2.806164 3.4060895 3.931679
00000000: 5c86 4840 7cc1 6b40 7648 4740 b396 3f40
00000010: ea0d 7340 34b6 8840 43ea 4e40 18c9 0940
00000020: a840 8740 b0b3 b540 3fb0 0f40 0155 5a40
00000030: 6bfd 4240 3198 3340 5ffd 5940 a1a0 7b40

fc.weight f4 [120, 400]
-0.1178441 -0.073328465 -0.12278784 0.07664106 0.04559324 0.1521235 0.09627031 0.004337736
-0.15694702 -0.101348795 0.022228751 -0.2467976 -0.002314914 -0.109732196 0.13105942 -0.34831116
-0.29064503 -0.11186237 0.061356574 -0.06453863 -0.045814432 -0.28517652 -0.41143435 -0.17706409
-0.43320787 0.064308226 0.106662735 -0.26133865 0.03672314 -0.02248668 -0.01730991 -0.104945466
-0.08243774 0.32893538 0.07787276 -0.0033023378 0.00405483 0.15910625 0.06697669 -0.25702915
-0.15436241 -0.1236913 0.032673545 0.15605642 0.268391 0.06345104 0.1664789 0.19507205
0.119843386 0.20393519 -0.09798271 0.21536003 0.09614424 -0.100455046 -0.08709437 0.17470632
0.020862553 0.05398063 -0.038368568 0.11113191 -0.015894404 -0.2152942 -0.13505846 -0.16255397
-0.00692705 -0.07807064 -0.04457801 -0.12647982 -0.2935925 -0.21418083 0.02298166 -0.14561768
-0.12522517 -0.09863878 -0.13754718 -0.14617953 -0.17997316 -0.0381945 0.05026657 0.09603157
-0.12829629 -0.12589955 -0.13878831 -0.041248504 -0.043581832 -0.12563717 0.0690899 0.007993973
-0.14499521 -0.004616805 0.17556134 0.042475965 0.09205062 -0.02902914 0.009627513 0.26769003
0.09990386 -0.07671392 -0.18896125 -0.06971915 -0.055514082 -0.11097802 -0.08068138 0.06763801
-0.16885555 0.017963065 -0.018055093 0.120668754 0.15688778 -0.040635493 -0.1645878 0.08807673
0.10487925 -0.040757667 0.1542894 0.01997099 0.15790124 0.24880688 -0.0902215 0.17263076
0.2718185 0.019896949 0.020873884 0.14520258 0.030124092 0.019616855 -0.04374 -0.42988378
-0.34157124 -0.120088264 -0.058087032 -0.2656742 -0.4716941 -0.30157414 -0.048002224 -0.111934274
0.016718106 0.15960233 -0.107701145 -0.14322105 -0.070691325 -0.14962363 -0.048756752 -0.14399672
0.046129316 -0.064720005 0.034737106 0.082000725 -0.036678005 -0.044492412 -0.10862661 0.13480179
-0.05689636 0.019849015 -0.07225814 0.021521008 -0.1279024 -0.0426242 0.17006594 0.1320967
0.32068998 -0.041241817 -0.10207815 -0.07154938 0.18602136 -0.033368986 0.07943312 0.090103135
-0.08380711 -0.19712722 -0.3949955 0.2577024 -0.0594009 -0.07077568 -0.4117379 0.03553517
0.20202905 0.10225609 -0.17528813 0.08259741 -0.02863793 0.013666192 0.039373387 0.169909
0.0819733 -0.07449906 -0.08811792 0.024827 -0.071212955 -0.09623594 -0.055816125 -0.1396141
-0.23951162 -0.35005397 -0.12602988 -0.31943667 -0.4418356 0.008316414 -0.20119813 -0.010773869
-0.15060323 -0.037830036 -0.12358258 -0.024897799 -0.06849261 -0.21173684 0.19597802 0.014342357
0.0747977 0.17443486 0.19752659 0.0382799 -0.17877798 -0.09217811 0.16195542 -0.1873066
0.17136826 0.17986867 0.16492571 0.08097623 0.3146122 -0.004745329 0.1892574 0.28393388
0.08064974 0.04134696 0.12959199 0.17155142 0.17724364 0.095395185 0.1731756 0.08339919
0.09774941 0.06870184 -0.09127434 -0.023523407 0.039548874 0.058464836 0.2732954 0.15397152
0.06763441 0.12357159 0.060828324 0.063973084 -0.04008754 -0.51667255 -0.475494 -0.15045425
-0.32403687 -0.28723606 0.08385733 0.09831858 0.21355839 0.2143013 0.37863043 0.02485957
00000000: 3f58 f1bd 3c2d 96bd 3178 fbbd fdf5 9c3d
00000010: fabf 3a3d 43c6 1b3e 5e29 c53d 9123 8e3b
00000020: b8b6 20be f58f cfbd 1219 b63c 83b8 7cbe
00000030: d0b5 17bb 46bb e0bd 7134 063e d755 b2be
00000040: 6dcf 94be 1918 e5bd 0851 7b3d d42c 84bd
00000050: eaa7 3bbd a802 92be 86a7 d2be 4a50 35be
00000060: 6ccd ddbe 08b4 833d fe71 da3d 2ece 85be
00000070: 016b 163d fc35 b8bc 83cd 8dbc a6ed d6bd
00000080: 1ed5 a8bd 386a a83e c17b 9f3d 096c 58bb
00000090: 61de 843b c0ec 223e 132b 893d 5399 83be
000000a0: 2e11 1ebe dd51 fdbd b2d4 053d 41cd 1f3e
000000b0: 8c6a 893e 9ef2 813d 7279 2a3e f8c0 473e
000000c0: 7370 f53d 63d4 503e 29ab c8bd 5787 5c3e
000000d0: 45e7 c43d 60bb cdbd 885e b2bd 37e6 323e
000000e0: f2e7 aa3c cb1a 5d3d 5c28 1dbd 2099 e33d
000000f0: fb34 82bc 1576 5cbe c44c 0abe 8c74 26be
00000100: 4ffc e2bb 80e3 9fbd 6e97 36bd ed83 01be
00000110: c251 96be 3852 5bbe 0944 bc3c cd1c 15be
00000120: 073b 00be 2103 cabd 2bd9 0cbe 16b0 15be
00000130: e24a 38be d671 1cbd 52e4 4d3d 33ac c43d
00000140: 1a60 03be d0eb 00be 861e 0ebe 31f4 28bd
00000150: dd82 32bd 08a7 00be 017f 8d3d 27f9 023c
00000160: a079 14be 9148 97bb 5ac6 333e 47fb 2d3d
00000170: 0985 bc3d 85ce edbc b7bc 1d3c ab0e 893e
00000180: 659a cc3d 301c 9dbd 0f7f 41be eac8 8ebd
00000190: bc62 63bd 7248 e3bd 483c a5bd cc85 8a3d
000001a0: 78e8 2cbe 4727 933c 46e8 93bc 2e21 f73d
000001b0: 31a7 203e 6771 26bd b489 28be 9361 b43d
000001c0: efca d63d 83f1 26bd 0afe 1d3e 349a a33c
000001d0: ddb0 213e 3bc7 7e3e 0dc6 b8bd 1ec6 303e
000001e0: cb2b 8b3e edfe a23c b5ff aa3c fcaf 143e
000001f0: cdc6 f63c 87b3 a03c b728 33bd ba19 dcbe
00000200: 6de2 aebe d6f0 f5bd abec 6dbd 7306 88be
00000210: e481 f1be ed67 9abe fb9d 44bd cc3d e5bd
00000220: 69f4 883c cb6e 233e 6b92 dcbd 8aa8 12be
00000230: 9dc6 90bd f036 19be 29b5 47bd e073 13be
00000240: 18f2 3c3d ec8b 84bd 7f48 0e3d ffef a73d
00000250: ad3b 16bd ad3d 36bd a177 debd 7b09 0a3e
00000260: 280c 69bd 679a a23c 13fc 93bd d34c b03c
00000270: d9f8 02be b796 2ebd c425 2e3e 5b44 073e
00000280: 7a31 a43e 2eed 28bd 590e d1bd 7b88 92bd
00000290: 627c 3e3e ebad 08bd d5ad a23d fe87 b83d
000002a0: 10a3 abbd b8db 49be da3c cabe 92f1 833e
000002b0: 5c4e 73bd d7f2 90bd 4fcf d2be 548d 113d
000002c0: b4e0 4e3e a46b d13d bb7e 33be d528 a93d
000002d0: 189a eabc 2ae8 5f3c fd45 213d a0fc 2d3e
000002e0: 9ee1 a73d f792 98bd 2b77 b4bd fe61 cb3c
000002f0: 19d8 91bd 5917 c5bd 739f 64bd 00f7 0ebe
00000300: 8942 75be 463a b3be fa0d 01be 348d a3be
00000310: 4738 e2be 9241 083c e206 4ebe e284 30bc
00000320: bc37 1abe abf3 1abd dd18 fdbd 78f6 cbbc
00000330: da45 8cbd 8bd1 58be 76ae 483e 35fc 6a3c
00000340: 892f 993d 0d9f 323e 6944 4a3e 62cb 1c3d
00000350: 9311 37be e0c7 bcbd a4d7 253e 4dcd 3fbe
00000360: 297b 2f3e 7e2f 383e 49e2 283e ded6 a53d
00000370: da14 a13e b47e 9bbb b1cc 413e c85f 913e
00000380: b12b a53d 6e5b 293d c3b3 043e 2dab 2f3e
00000390: 5b7f 353e 8d5e c33d f254 313e 32cd aa3d
000003a0: d830 c83d 8db3 8c3d 0bee babd 29b4 c0bc
000003b0: 00fe 213d d378 6f3d 60ed 8b3e b6aa 1d3e
000003c0: e983 8a3d 1a13 fd3d 1f27 793d 5204 833d
000003d0: d532 24bd a744 04bf f373 f3be ae10 1abe
000003e0: 29e8 a5be 9b10 93be 64bd ab3d 405b c93d
000003f0: 0daf 5a3e cd71 5b3e d9db c13e 4ca6 cb3c

fc.bias f4 [120]
0.02550473 -0.040907744 0.050250374 -0.05660179 0.03230265 -0.060716275 -0.0043522785 -0.057062026
-0.03984456 -0.08111815 -0.017496394 0.0051795053 -0.10824655 0.1053536 -0.082399435 0.016410094
-0.0703409 -0.013921248 -0.04278731 -0.041939586 0.12708658 -0.045933813 0.022149837 -0.071207955
-0.039323185 -0.029524282 0.048965607 -0.049039725 -0.074782036 0.013534867 0.02366416 -0.0050104386
-0.030113978 -0.030293472 -0.044614017 -0.022494268 0.033435043 -0.008183802 0.0008282695 -0.056737218
-0.019650675 -0.026381385 -0.008716133 -0.018151069 0.08881753 -0.03516703 -0.0032187852 -0.034491494
0.042093188 -0.054218113 0.04737244 0.037817437 0.0261023 0.0033821368 0.09037599 0.042038582
-0.10031274 -0.048758212 0.023320999 -0.049515966 -0.03435637 0.0281606 0.03390524 0.03191122
-0.0063405386 -0.005438175 0.063070625 -0.02385594 -0.0061595924 -0.095689885 0.011836919 -0.06366652
0.039011534 -0.022145001 -0.10057872 0.011404453 0.012262809 0.015312391 -0.059629142 0.04288402
-0.13380371 -0.1440091 -0.0035797756 -0.0665724 -0.037893783 0.016079713 0.020095235 -0.12859449
-0.020570803 0.039557043 -0.018895859 0.032572377 -0.07797357 0.06755893 0.097368605 -0.042158056
-0.008081877 0.107980594 0.010338556 -0.010766987 -0.049155924 0.12684277 0.01783515 -0.022957372
-0.050651833 -0.076048285 0.03526485 -0.0054558464 0.065202124 0.001019357 -0.059248026 -0.042880017
0.011188885 -0.025244163 -0.1047713 -0.06941627 -0.044178642 -0.061330914 0.07794021 -0.03536179
00000000: 4cef d03c e18e 27bd 56d3 4d3d 47d7 67bd
00000010: c94f 043d a1b1 78bd 8f9d 8ebb dfb9 69bd
00000020: 0d34 23bd 4621 a6bd 9954 8fbc d7b8 a93b
00000030: 5eb0 ddbd a1c3 d73d 09c1 a8bd 766e 863c
00000040: e40e 90bd f215 64bc bf41 2fbd d8c8 2bbd
00000050: fc22 023e 1825 3cbd 9373 b53c 7ad5 91bd
00000060: 5911 21bd e8dc f1bc 2990 483d e1dd 48bd
00000070: 5327 99bd 59c1 5d3c 57db c13c 9b2e a4bb
00000080: 97b1 f6bc 042a f8bc 30bd 36bd e645 b8bc
00000090: 2ff3 083d 5a15 06bc 3a20 593a 4965 68bd
000000a0: 74fa a0bc c61d d8bc 1dce 0ebc 8db1 94bc
000000b0: f7e5 b53d 4e0b 10bd 41f2 52bb f446 0dbd
000000c0: e869 2c3d d013 5ebd 9b09 423d 75e6 1a3d
000000d0: 7ed4 d53c d7a6 5d3b 0c17 b93d a630 2c3d
000000e0: c470 cdbd b1b6 47bd ae0b bf3c 41d1 4abd
000000f0: 44b9 0cbd 0fb1 e63c 39e0 0a3d 57b5 023d
00000100: 4bc4 cfbb b832 b2bb 2c2b 813d 886d c3bc
00000110: 68d6 c9bb 0ff9 c3bd a3ef 413c 9863 82bd
00000120: 8fca 1f3d 6f69 b5bc 37fc cdbd bed9 3a3c
00000130: f3e9 483c d3e0 7a3c b03d 74bd 27a7 2f3d
00000140: d703 09be 1f77 13be ab9a 6abb 1c57 88bd
00000150: 8336 1bbd 9ab9 833c c39e a43c 46ae 03be
00000160: 1a84 a8bc 9106 223d 7dcb 9abc 9d6a 053d
00000170: 9bb0 9fbd 565c 8a3d 3169 c73d edad 2cbd
00000180: d969 04bc ee24 dd3d 0c63 293c 0468 30bc
00000190: b957 49bd 12e3 013e 051b 923c 1911 bcbc
000001a0: 4c78 4fbd 34bf 9bbd e071 103d f5c6 b2bb
000001b0: b188 853d f29b 853a 0fae 72bd f5a2 2fbd
000001c0: 9651 373c d9cc cebc 5692 d6bd 1e2a 8ebd
000001d0: aaf4 34bd 2036 7bbd 1e9f 9f3d 86d7 10bd

fc1.weight f4 [84, 120]
0.16809925 0.07542627 -0.2592692 -0.29206526 -0.09312395 -0.012550893 -0.067282796 0.044672817
-0.21170941 0.0101885935 -0.20270383 0.1616517 0.002108036 0.08754345 -0.00714214 -0.03892296
-0.14728095 0.11975984 0.1074564 -0.355386 0.14971669 -0.40213102 -0.049564544 0.19800182
-0.07747471 0.2942294 -0.042799342 -0.016536457 0.013415323 0.1990796 -0.15507574 0.04382008
-0.30180776 -0.18159446 0.037123866 0.047292132 -0.13145295 -0.12975745 -0.1902882 -0.08786362
-0.08334533 -0.085986696 -0.046911765 0.09114736 -0.019991549 -0.07987517 0.058544576 -0.15299492
-0.26958203 0.06863465 -0.08144897 0.18467967 0.07147234 0.005195008 -0.011505885 -0.092580125
-0.18373261 -0.022232966 -0.22687835 -0.016592592 0.018452402 0.06806477 -0.01024997 -0.022178162
0.037822366 0.04011827 -0.0056507215 0.028183833 -0.06141917 -0.037014484 0.13979429 0.037950873
-0.0078477645 -0.014419758 -0.118205324 -0.05922439 0.07204813 0.029880665 -0.101153255 0.16302587
-0.01320306 -0.10984857 -0.07241884 0.0749029 0.07672667 0.06526694 -0.0011253749 -0.07501493
-0.07973573 0.005479409 -0.061814446 -0.08130702 -0.028530475 0.12354589 0.034709893 -0.014153711
0.03076758 -0.2514197 0.047116045 -0.11319295 -0.013682206 0.053934276 -0.25208762 -0.144795
-0.16168387 -0.17603625 -0.0374318 -0.07362732 -0.011787755 0.03853742 -0.21200082 -0.056418184
-0.047259465 0.030119173 -0.14527446 -0.03742622 0.17622538 -0.042728405 -0.13578576 0.051585995
0.23933989 0.14437617 -0.12588868 -0.0654517 0.0035031503 -0.121574156 -0.010155158 0.026653761
0.09962885 0.066235036 -0.11813973 -0.008612653 -0.18015017 0.24162795 -0.116033025 -0.04360684
-0.106475845 0.046913568 0.0688011 -0.30295292 0.25165427 -0.051828004 0.22813864 0.1450474
0.018154478 -0.06320316 0.0031244017 0.05457468 -0.094124995 0.16915219 0.08316711 -0.20599058
-0.21817698 0.11942911 -0.011476901 -0.18772633 0.112828225 -0.24408038 -0.2034234 -0.1366977
0.12050315 0.06726806 -0.015994001 -0.003239709 0.13391286 -0.026628777 0.024468916 0.053212907
-0.099692576 0.034128934 -0.047814563 0.07087876 -0.061284624 -0.09043206 0.2494355 -0.019646963
0.009162465 0.102472186 0.119087525 0.06083976 -0.11235442 0.08281342 0.15131532 0.055994067
-0.056612276 -0.002654772 -0.16759594 -0.009960832 -0.05573122 -0.3644774 0.047865637 -0.02252251
0.07218729 -0.057935644 -0.16083829 0.0764197 0.0143712275 -0.0013631209 -0.12184426 0.0020788815
-0.21106884 -0.18773483 -0.21690492 -0.2748726 0.10291553 0.0656308 0.17881057 -0.15227236
0.06793305 0.027613921 -0.2780568 0.12529817 -0.24383354 -0.003504903 0.25092167 -0.032581102
-0.06459319 0.13285162 -0.030926604 0.012422191 -0.083371885 0.18365118 -0.21236385 0.050675478
-0.022463102 -0.07669616 0.07163711 -0.14163864 0.2712142 0.05567699 -0.06162603 -0.049033996
0.16581364 -0.026096758 -0.14722672 -0.11450674 -0.23257592 0.03902323 0.12409318 0.008037077
0.2650133 0.044464685 -0.062370777 0.2165529 0.09073984 -0.108437695 0.008484013 0.11223654
-0.0728472 0.039657492 -0.31115708 0.1221737 0.15926208 0.19914947 0.026682705 0.1310872
00000000: 3622 2c3e 1779 9a3d efbe 84be 9489 95be
00000010: c5b7 bebd 43a2 4dbc 90cb 89bd d8fa 363d
00000020: 5aca 58be 0fee 263c 9891 4fbe 0688 253e
00000030: fa26 0a3b fb49 b33d 9d08 eabb af6d 1fbd
00000040: d1d0 16be a644 f53d 1a12 dc3d 27f5 b5be
00000050: 554f 193e 1ee4 cdbe 3104 4bbd fdc0 4a3e
00000060: 10ab 9ebd 3ca5 963e 5d4e 2fbd 7777 87bc
00000070: f1cb 5b3c 86db 4b3e 2dcc 1ebe af7c 333d
00000080: 8c86 9abe e6f3 39be 320f 183d 65b5 413d
00000090: 9a9b 06be 23df 04be e9da 42be d7f1 b3bd
000000a0: f5b0 aabd cb19 b0bd 8d26 40bd 78ab ba3d
000000b0: 51c5 a3bc 9895 a3bd 70cc 6f3d b3aa 1cbe
000000c0: a806 8abe 5390 8c3d b8ce a6bd ab1c 3d3e
000000d0: 1760 923d e33a aa3b 2e83 3cbc a69a bdbd
000000e0: 6724 3cbe e921 b6bc cc52 68be 30ed 87bc
000000f0: 7e29 973c 8b65 8b3d 7def 27bc faae b5bc
00000100: a0eb 1a3d 0e53 243d b029 b9bb c8e1 e63c
00000110: ab92 7bbd 809c 17bd 3c26 0f3e 6072 1b3d
00000120: e993 00bc d940 6cbc a215 f2bd 4695 72bd
00000130: f88d 933d 4cc8 f43c 7029 cfbd 41f0 263e
00000140: a651 58bc 49f8 e0bd 5450 94bd b166 993d
00000150: df22 9d3d acaa 853d 5181 93ba 6da1 99bd
00000160: 7d4c a3bd 9d8c b33b 2531 7dbd 4b84 a6bd
00000170: beb8 e9bc a105 fd3d f62b 0e3d f7e4 67bc
00000180: 4b0c fc3c 15ba 80be c1fc 403d b5d1 e7bd
00000190: 552b 60bc 30ea 5c3d a111 81be 2445 14be
000001a0: 7590 25be d942 34be 1652 19bd ecc9 96bd
000001b0: 6e21 41bc 6ad9 1d3d be16 59be c116 67bd
000001c0: 2493 41bd 7cbc f63c d4c2 14be 3c4c 19bd
000001d0: 6d74 343e fb03 2fbd 6c0b 0bbe d64b 533d
000001e0: 8415 753e 59d7 133e f6e8 00be 8a0b 86bd
000001f0: 1c95 653b dffb f8bd d261 26bc fd58 da3c
00000200: 360a cc3d 3ca6 873d 3ef3 f1bd 161c 0dbc
00000210: 4979 38be 516d 773e b9a2 edbd 169d 32bd
00000220: 0210 dabd 7128 403d 97e7 8c3d a51c 9bbe
00000230: d4d8 803e 9a49 54bd 2d9d 693e 4e87 143e
00000240: b3b8 943c a970 81bd c3c2 4c3b b389 5f3d
00000250: 9bc4 c0bd 3b36 2d3e 8553 aa3d 32ef 52be
00000260: c969 5fbe 4097 f43d 9d09 3cbc 553b 40be
00000270: 7c12 e73d 35f0 79be 394e 50be 7bfa 0bbe
00000280: 5bca f63d d6c3 893d da05 83bc 4c51 54bb
00000290: 7420 093e 9824 dabc 0973 c83c c7f5 593d
000002a0: 9f2b ccbd c8ca 0b3d 34d9 43bd e228 913d
000002b0: 9605 7bbd 7234 b9bd 056c 7f3e abf2 a0bc
000002c0: 2a1e 163c f0dc d13d 29e4 f33d 1d33 793d
000002d0: 131a e6bd 159a a93d 67f2 1a3e 095a 653d
000002e0: 46e2 67bd affb 2dbb 459e 2bbe c232 23bc
000002f0: 6b46 64bd c89c babe c20e 443d 2081 b8bc
00000300: eed6 933d ed4d 6dbd cbb2 24be ef81 9c3d
00000310: 4c75 6b3c bfaa b2ba 7c89 f9bd d83d 083b
00000320: 6e22 58be 8f3d 40be 531c 5ebe 1abc 8cbe
00000330: 61c5 d23d 7169 863d 1e1a 373e 49ed 1bbe
00000340: 7c20 8b3d 9736 e23c 765d 8ebe 2a4e 003e
00000350: 80af 79be 84b2 65bb ce78 803e c373 05bd
00000360: 6f49 84bd 410a 083e ca59 fdbc 7286 4b3c
00000370: e1be aabd 0e0f 3c3e e975 59be 1791 4f3d
00000380: 8a04 b8bc e012 9dbd 7ab6 923d b809 11be
00000390: 96dc 8a3e 8e0d 643d 936b 7cbd dfd7 48bd
000003a0: 0dcb 293e dec8 d5bc 9ac2 16be 8282 eabd
000003b0: 6228 6ebe d3d6 1f3d 9124 fe3d f2ad 033c
000003c0: d3af 873e 9a20 363d 8078 7fbd 0bc0 5d3e
000003d0: cfd5 b93d 9514 debd 8800 0b3c 45dc e53d
000003e0: ea30 95bd e56f 223d fb4f 9fbe 3436 fa3d
000003f0: 9915 233e d7ed 4b3e b095 da3c b93b 063e

fc1.bias f4 [84]
-0.11592487 0.13369422 -0.08013759 0.016419938 -0.065969616 -0.12739821 -0.009610667 -0.13327427
-0.009743068 -0.09414359 0.10033499 0.006377888 -0.06767857 0.072390765 -0.029460117 -0.04306262
-0.10650448 0.016727697 -0.015083798 0.027528726 0.073363654 -0.1476278 0.07911982 0.119461626
0.14363633 0.052640196 -0.14467657 0.0683986 0.04084205 0.09051713 0.04491216 -0.0814561
0.08727523 0.03703279 -0.037811104 0.11988032 0.107936285 0.09148852 -0.08933744 0.1977665
-0.027907426 0.017300785 0.16481596 0.1471529 -0.04499525 0.024113687 -0.050851725 0.13871971
-0.0400069 -0.02914372 0.20701523 -0.07026159 -0.11588469 -0.023779118 -0.048130125 0.06018824
0.14722525 0.048654873 0.0477253 0.051456872 0.1534351 0.036813278 -0.093079485 0.08868407
-0.060103554 -0.026439937 -0.08024509 -0.1986878 0.01857473 -0.014001359 0.010447831 -0.07504576
0.017888231 0.13458858 0.07925232 0.048150163 0.059304684 -0.04639225 -0.15525079 0.07860718
-0.08982376 0.06491787 0.040843967 -0.05216012
00000000: 056a edbd 23e7 083e 2d1f a4bd 1b83 863c
00000010: 141b 87bd ad74 02be 0f76 1dbc 0d79 08be
00000020: 64a1 1fbc 5bce c0bd 6e7c cd3d 9afd d03b
00000030: 109b 8abd 9c41 943d 5856 f1bc 6e62 30bd
00000040: 051f dabd 8608 893c 0922 77bc ec83 e13c
00000050: af3f 963d be2b 17be 9209 a23d 4ca8 f43d
00000060: 6715 133e 3f9d 573d 1826 14be 9114 8c3d
00000070: fe49 273d 0c61 b93d d0f5 373d 75d2 a6bd
00000080: 5bbd b23d b2af 173d d1df 1abd d083 f53d
00000090: b30d dd3d 555e bb3d 8cf6 b6bd 4d83 4a3e
000000a0: 1d9e e4bc 60ba 8d3c 84c5 283e 40af 163e
000000b0: f04c 38bd 118a c53c e649 50bd 8a0c 0e3e
000000c0: 46de 23bd d0be eebc cdfb 533e 4fe5 8fbd
000000d0: f454 edbd 6dcc c2bc 1824 45bd f287 763d
000000e0: 37c2 163e 554a 473d 9b7b 433d 71c4 523d
000000f0: 171e 1d3e 85c9 163d 75a0 bebd fe9f b53d
00000100: 252f 76bd 9198 d8bc 8a57 a4bd d174 4bbe
00000110: 082a 983c f565 65bc 612d 2b3c 97b1 99bd
00000120: 578a 923c 97d1 093e 0a4f a23d 1b39 453d
00000130: 78e9 723d cd05 3ebd 10fa 1ebe cdfc a03d
00000140: 85f5 b7bd a9f3 843d 014c 273d daa5 55bd

fc2.weight f4 [10, 84]
-0.0469237 0.113277115 -0.19082215 0.15095188 -0.17142682 0.15297312 -0.04127709 0.12075039
-0.12468242 -0.10956434 0.18351772 -0.24082422 0.31534407 -0.19175784 -0.39039484 0.117131494
-0.06863625 0.0009108866 -0.025208578 -0.07057779 0.043980952 0.13217531 0.09900298 -0.41299474
-0.19094495 0.17149091 -0.03367409 0.04555388 -0.09581813 -0.045669913 0.15318531 0.07959188
-0.40257585 -0.105300836 -0.13172814 -0.389725 -0.39227122 0.01427496 -0.22307718 -0.44457158
-0.30906656 0.0020223209 -0.09460139 0.14159712 0.03488805 -0.0986159 -0.06407448 0.16347322
0.15458371 -0.43288794 -0.111763604 -0.07152537 0.22195977 -0.26973015 0.115998715 -0.27287012
-0.13875231 0.006737653 0.016983712 -0.036450304 0.17117383 -0.0738244 -0.12583892 -0.081648074
-0.3067658 0.071135975 0.04196936 -0.082087815 -0.26351807 -0.3171172 0.05728491 -0.24285187
-0.11951414 -0.24801551 -0.43025532 0.0547077 -0.15259103 0.20050555 0.111896224 -0.3243937
-0.16297007 -0.17798612 -0.079740435 0.077040285 -0.39576718 0.250541 0.13441253 -0.29747024
-0.262461 0.12128448 -0.36378586 -0.011913267 -0.087494455 -0.15561385 0.022100866 0.13384359
0.045931984 -0.11678105 -0.28183365 -0.38358238 0.051418126 -0.18634704 -0.2041654 -0.06448686
-0.11483862 0.107671976 -0.29052925 -0.28629813 0.06222779 -0.061838202 -0.2083452 -0.14965712
0.11081213 -0.042684615 0.1538427 -0.10094557 -0.1530168 -0.3661515 -0.09065701 0.08819986
-0.21698566 -0.0500719 0.0785568 0.090103306 0.010099484 0.07025982 0.23973693 0.010364289
0.09765623 -0.043016337 0.058829673 0.081594974 -0.2982875 0.101790756 0.119434096 0.04687442
-0.46248168 -0.3838746 -0.046453245 0.09340338 -0.2520779 -0.099127404 0.23376492 0.135203
0.05787566 0.12988982 -0.07823006 -0.027934637 -0.11322161 0.028519157 -0.2727381 -0.2018589
0.13253085 -0.24038269 0.012232982 -0.002637443 0.1301302 -0.32217458 0.04161409 -0.13568397
-0.30297244 -0.18812694 0.14958589 0.14154387 0.04202579 0.14654116 -0.10439326 0.01934276
-0.19880387 -0.4205774 0.15559648 -0.16788574 0.21034741 -0.007814388 -0.04106352 0.029398872
-0.38607407 -0.092801765 -0.14735614 0.1337804 0.0518858 -0.21435885 0.14459044 0.10489073
-0.032676492 0.2443655 -0.0332682 -0.07005339 -0.12066747 -0.17269175 0.024419863 -0.23726468
-0.1338672 -0.20831153 -0.05718324 -0.0069278874 -0.17511572 0.17165965 -0.3259098 -0.0024144757
-0.015508649 -0.073973924 0.060011376 -0.037671644 -0.24156918 0.031271663 0.025413929 0.15955086
-0.24405389 0.0011863455 0.0004810383 -0.085735485 0.07390714 -0.34799284 -0.083714254 0.075573966
0.097927 -0.15914384 0.09421145 -0.06872322 0.1639462 0.07685136 0.15181679 -0.22195102
0.13470563 -0.071243525 -0.08714829 -0.063723676 -0.22545046 0.091608286 0.08039367 0.05756318
0.0862638 -0.1644565 0.20965806 -0.089269854 -0.19506414 0.042966437 -0.091724604 -0.16583444
-0.4168435 -0.321736 -0.15021177 0.14842851 -0.172865 0.014361877 0.03164657 0.13990623
-0.12325309 0.021855608 -0.09343428 0.12316593 0.054710645 -0.013486232 -0.11148243 -0.22761953
00000000: 1133 40bd d5fd e73d e266 43be 2193 1a3e
00000010: 838a 2fbe fca4 1c3e 2a12 29bd fb4b f73d
00000020: 7f59 ffbd 4563 e0bd 12ec 3b3e a09a 76be
00000030: c774 a13e 2b5c 44be d5e1 c7be a3e2 ef3d
00000040: 2a91 8cbd 91c8 6e3a 3882 cebc 178b 90bd
00000050: 5f25 343d f758 073e 13c2 ca3d 0c74 d3be
00000060: 1387 43be 509b 2f3e d8ed 09bd b596 3a3d
00000070: 4c3c c4bd 6010 3bbd 9cdc 1c3e 1101 a33d
00000080: 6c1e cebe f7a7 d7bd bee3 06be 098a c7be
00000090: c6d7 c8be 86e1 693c 586e 64be e39e e3be
000000a0: f93d 9ebe ea88 043b 60be c1bd d6fe 103e
000000b0: c6e6 0e3d 22f7 c9bd 7b39 83bd 8665 273e
000000c0: 314b 1e3e 7da3 ddbe 51e4 e4bd e57b 92bd
000000d0: 6c49 633e 121a 8abe bc90 ed3d a2b5 8bbe
000000e0: 1615 0ebe 88c7 dc3b 6d21 8b3c ea4c 15bd
000000f0: 3148 2f3e 3f31 97bd ebdb 00be 1b37 a7bd
00000100: 6810 9dbe bdaf 913d 10e8 2b3d a81d a8bd
00000110: d7eb 86be 305d a2be 95a3 6a3d 29ae 78be
00000120: d4c3 f4bd c7f7 7dbe 6d4a dcbe 2e15 603d
00000130: d340 1cbe 5451 4d3e d929 e53d ee16 a6be
00000140: a0e1 26be fe41 36be f44e a3bd 4cc7 9d3d
00000150: ffa1 cabe e946 803e 70a3 093e 054e 98be
00000160: 4a61 86be ff63 f83d 2442 babe dd2f 43bc
00000170: 4b30 b3bd 3d59 1fbe e00c b53c 4b0e 093e
00000180: 2d23 3c3d e72a efbd 804c 90be e964 c4be
00000190: d09b 523d c2d1 3ebe bc10 51be b011 84bd
000001a0: 8330 ebbd 2083 dc3d 40c0 94be ab95 92be
000001b0: 91e2 7e3d 0e4a 7dbd 7258 55be b73f 19be
000001c0: 78f1 e23d 10d6 2ebd f188 1d3e 8dbc cebd
000001d0: 70b0 1cbe 3678 bbbe 62aa b9bd 21a2 b43d
000001e0: 7d31 5ebe 3118 4dbd 63e2 a03d 1588 b83d
000001f0: 4e78 253c 61e4 8f3d 997d 753e fbce 293c
00000200: fdff c73d e631 30bd 62f7 703d 441b a73d
00000210: 24b9 98be ac77 d03d dd99 f43d 64ff 3f3d
00000220: 66ca ecbe 368b c4be c245 3ebd 454a bf3d
00000230: 5b10 81be 4f03 cbbd 1260 6f3e a872 0a3e
00000240: 070f 6d3d d601 053e 1537 a0bd 2ed7 e4bc
00000250: bbe0 e7bd 02a1 e93c 54a4 8bbe 19b4 4ebe
00000260: 2bb6 073e e126 76be d86c 483c f3d8 2cbb
00000270: da40 053e 11f4 a4be 8973 2a3d bdf0 0abe
00000280: 341f 9bbe 59a4 40be 0b2d 193e e0f0 103e
00000290: 3c23 2c3d e30e 163e 22cc d5bd b574 9e3c
000002a0: 3e93 4bbe ec55 d7be af54 1f3e 3dea 2bbe
000002b0: 5065 573e eb07 00bc 3932 28bd e7d5 f03c
000002c0: 80ab c5be da0e bebd 87e4 16be bbfd 083e
000002d0: 3486 543d e380 5bbe 840f 143e f3d0 d63d
000002e0: c9d7 05bd f33a 7a3e 3c44 08bd 2778 8fbd
000002f0: 8220 f7bd 1bd6 30be 2a0c c83c 83f5 72be
00000300: 7c14 09be 9e4f 55be f938 6abd 5503 e3bb
00000310: 8951 33be 8cc7 2f3e a6dd a6be 2e3c 1ebb
00000320: fd17 7ebc a47f 97bd 7dce 753d 954d 1abd
00000330: e95d 77be b716 003d df30 d03c 4d61 233e
00000340: 43e9 79be 267f 9b3a de33 fc39 1696 afbd
00000350: a05c 973d 1e2c b2be 6172 abbd 86c6 9a3d
00000360: f38d c83d 9af6 22be eff1 c03d c2be 8cbd
00000370: 83e1 273e 3f64 9d3d dc75 1b3e 2147 63be
00000380: 46f0 093e 20e8 91bd cd7a b2bd 8f81 82bd
00000390: 7cdc 66be 209d bb3d 70a5 a43d 5ec7 6b3d
000003a0: 13ab b03d 4967 28be 9ab0 563e 1dd3 b6bd
000003b0: e5be 47be 93fd 2f3d 1cda bbbd 81d0 29be
000003c0: 836c d5be 95ba a4be 1dd1 19be a5fd 173e
000003d0: 8603 31be 144e 6b3c d59f 013d 9443 0f3e
000003e0: 1e6c fcbd 880a b33c 795a bfbd 6b3e fc3d
000003f0: 4518 603d 5bf5 5cbc e650 e4bd 1815 69be

fc2.bias f4 [10]
-0.008371546 0.03694481 0.022803921 0.052771848 -0.03336763 -0.04309225 -0.10403673 0.09158773
0.048231907 -0.0790394
00000000: cf28 09bc 7153 173d 4acf ba3c 4b27 583d
00000010: 7fac 08bd 8081 30bd 3611 d5bd 5992 bb3d
00000020: d28e 453d 69df a1bd
